…
': 768, 'id07175': 769, 'id03877': 770, 'id00755': 771, 'id04151': 772, 'id00022': 773, 'id08022': 774, 'id02384': 775, 'id06474': 776, 'id04716': 777, 'id04560': 778, 'id02040': 779, 'id02437': 780, 'id00911': 781, 'id03931': 782, 'id03527': 783, 'id01315': 784, 'id03820': 785, 'id03352': 786, 'id02150': 787, 'id00752': 788, 'id07980': 789, 'id07341': 790, 'id01639': 791, 'id03304': 792, 'id04589': 793, 'id02252': 794, 'id08477': 795, 'id07954': 796, 'id03907': 797, 'id04300': 798, 'id06905': 799}, speakers=800)

Total number of parameters: 27251877 

muse(
  (encoder): Encoder(
    (conv1d_U): Conv1d(1, 256, kernel_size=(40,), stride=(20,), bias=False)
  )
  (separator): TemporalConvNet(
    (layer_norm): ChannelWiseLayerNorm((256,), eps=1e-05, elementwise_affine=True)
    (bottleneck_conv1x1): Conv1d(256, 256, kernel_size=(1,), stride=(1,), bias=False)
    (tcn): ModuleList(
      (0): Sequential(
        (0): Conv1d(768, 256, kernel_size=(1,), stride=(1,), bias=False)
        (1): TemporalBlock(
          (net): Sequential(
            (0): Conv1d(256, 512, kernel_size=(1,), stride=(1,), bias=False)
            (1): PReLU(num_parameters=1)
            (2): GlobalLayerNorm()
            (3): DepthwiseSeparableConv(
              (depthwise_conv): Conv1d(512, 512, kernel_size=(3,), stride=(1,), padding=(1,), groups=512, bias=False)
              (prelu): PReLU(num_parameters=1)
              (norm): GlobalLayerNorm()
              (pointwise_conv): Conv1d(512, 256, kernel_size=(1,), stride=(1,), bias=False)
            )
          )
        )
        (2): TemporalBlock(
          (net): Sequential(
            (0): Conv1d(256, 512, kernel_size=(1,), stride=(1,), bias=False)
            (1): PReLU(num_parameters=1)
            (2): GlobalLayerNorm()
            (3): DepthwiseSeparableConv(
              (depthwise_conv): Conv1d(512, 512, kernel_size=(3,), stride=(1,), padding=(2,), dilation=(2,), groups=512, bias=False)
              (prelu): PReLU(num_parameters=1)
              (norm): GlobalLayerNorm()
              (pointwise_conv): Conv1d(512, 256, kernel_size=(1,), stride=(1,), bias=False)
            )
          )
        )
        (3): TemporalBlock(
          (net): Sequential(
            (0): Conv1d(256, 512, kernel_size=(1,), stride=(1,), bias=False)
            (1): PReLU(num_parameters=1)
            (2): GlobalLayerNorm()
            (3): DepthwiseSeparableConv(
              (depthwise_conv): Conv1d(512, 512, kernel_size=(3,), stride=(1,), padding=(4,), dilation=(4,), groups=512, bias=False)
              (prelu): PReLU(num_parameters=1)
              (norm): GlobalLayerNorm()
              (pointwise_conv): Conv1d(512, 256, kernel_size=(1,), stride=(1,), bias=False)
            )
          )
        )
        (4): TemporalBlock(
          (net): Sequential(
            (0): Conv1d(256, 512, kernel_size=(1,), stride=(1,), bias=False)
            (1): PReLU(num_parameters=1)
            (2): GlobalLayerNorm()
            (3): DepthwiseSeparableConv(
              (depthwise_conv): Conv1d(512, 512, kernel_size=(3,), stride=(1,), padding=(8,), dilation=(8,), groups=512, bias=False)
              (prelu): PReLU(num_parameters=1)
              (norm): GlobalLayerNorm()
              (pointwise_conv): Conv1d(512, 256, kernel_size=(1,), stride=(1,), bias=False)
            )
          )
        )
        (5): TemporalBlock(
          (net): Sequential(
            (0): Conv1d(256, 512, kernel_size=(1,), stride=(1,), bias=False)
            (1): PReLU(num_parameters=1)
            (2): GlobalLayerNorm()
            (3): DepthwiseSeparableConv(
              (depthwise_conv): Conv1d(512, 512, kernel_size=(3,), stride=(1,), padding=(16,), dilation=(16,), groups=512, bias=False)
              (prelu): PReLU(num_parameters=1)
              (norm): GlobalLayerNorm()
              (pointwise_conv): Conv1d(512, 256, kernel_size=(1,), stride=(1,), bias=False)
            )
          )
        )
        (6): TemporalBlock(
          (net): Sequential(
            (0): Conv1d(256, 512, kernel_size=(1,), stride=(1,), bias=False)
            (1): PReLU(num_parameters=1)
            (2): GlobalLayerNorm()
            (3): DepthwiseSeparableConv(
              (depthwise_conv): Conv1d(512, 512, kernel_size=(3,), stride=(1,), padding=(32,), dilation=(32,), groups=512, bias=False)
              (prelu): PReLU(num_parameters=1)
              (norm): GlobalLayerNorm()
              (pointwise_conv): Conv1d(512, 256, kernel_size=(1,), stride=(1,), bias=False)
            )
          )
        )
        (7): TemporalBlock(
          (net): Sequential(
            (0): Conv1d(256, 512, kernel_size=(1,), stride=(1,), bias=False)
            (1): PReLU(num_parameters=1)
            (2): GlobalLayerNorm()
            (3): DepthwiseSeparableConv(
              (depthwise_conv): Conv1d(512, 512, kernel_size=(3,), stride=(1,), padding=(64,), dilation=(64,), groups=512, bias=False)
              (prelu): PReLU(num_parameters=1)
              (norm): GlobalLayerNorm()
              (pointwise_conv): Conv1d(512, 256, kernel_size=(1,), stride=(1,), bias=False)
            )
          )
        )
        (8): TemporalBlock(
          (net): Sequential(
            (0): Conv1d(256, 512, kernel_size=(1,), stride=(1,), bias=False)
            (1): PReLU(num_parameters=1)
            (2): GlobalLayerNorm()
            (3): DepthwiseSeparableConv(
              (depthwise_conv): Conv1d(512, 512, kernel_size=(3,), stride=(1,), padding=(128,), dilation=(128,), groups=512, bias=False)
              (prelu): PReLU(num_parameters=1)
              (norm): GlobalLayerNorm()
              (pointwise_conv): Conv1d(512, 256, kernel_size=(1,), stride=(1,), bias=False)
            )
          )
        )
      )
      (1): Sequential(
        (0): Conv1d(768, 256, kernel_size=(1,), stride=(1,), bias=False)
        (1): TemporalBlock(
          (net): Sequential(
            (0): Conv1d(256, 512, kernel_size=(1,), stride=(1,), bias=False)
            (1): PReLU(num_parameters=1)
            (2): GlobalLayerNorm()
            (3): DepthwiseSeparableConv(
              (depthwise_conv): Conv1d(512, 512, kernel_size=(3,), stride=(1,), padding=(1,), groups=512, bias=False)
              (prelu): PReLU(num_parameters=1)
              (norm): GlobalLayerNorm()
              (pointwise_conv): Conv1d(512, 256, kernel_size=(1,), stride=(1,), bias=False)
            )
          )
        )
        (2): TemporalBlock(
          (net): Sequential(
            (0): Conv1d(256, 512, kernel_size=(1,), stride=(1,), bias=False)
            (1): PReLU(num_parameters=1)
            (2): GlobalLayerNorm()
            (3): DepthwiseSeparableConv(
              (depthwise_conv): Conv1d(512, 512, kernel_size=(3,), stride=(1,), padding=(2,), dilation=(2,), groups=512, bias=False)
              (prelu): PReLU(num_parameters=1)
              (norm): GlobalLayerNorm()
              (pointwise_conv): Conv1d(512, 256, kernel_size=(1,), stride=(1,), bias=False)
            )
          )
        )
        (3): TemporalBlock(
          (net): Sequential(
            (0): Conv1d(256, 512, kernel_size=(1,), stride=(1,), bias=False)
            (1): PReLU(num_parameters=1)
            (2): GlobalLayerNorm()
            (3): DepthwiseSeparableConv(
              (depthwise_conv): Conv1d(512, 512, kernel_size=(3,), stride=(1,), padding=(4,), dilation=(4,), groups=512, bias=False)
              (prelu): PReLU(num_parameters=1)
              (norm): GlobalLayerNorm()
              (pointwise_conv): Conv1d(512, 256, kernel_size=(1,), stride=(1,), bias=False)
            )
          )
        )
        (4): TemporalBlock(
          (net): Sequential(
            (0): Conv1d(256, 512, kernel_size=(1,), stride=(1,), bias=False)
            (1): PReLU(num_parameters=1)
            (2): GlobalLayerNorm()
            (3): DepthwiseSeparableConv(
              (depthwise_conv): Conv1d(512, 512, kernel_size=(3,), stride=(1,), padding=(8,), dilation=(8,), groups=512, bias=False)
              (prelu): PReLU(num_parameters=1)
              (norm): GlobalLayerNorm()
              (pointwise_conv): Conv1d(512, 256, kernel_size=(1,), stride=(1,), bias=False)
            )
          )
        )
        (5): TemporalBlock(
          (net): Sequential(
            (0): Conv1d(256, 512, kernel_size=(1,), stride=(1,), bias=False)
            (1): PReLU(num_parameters=1)
            (2): GlobalLayerNorm()
            (3): DepthwiseSeparableConv(
              (depthwise_conv): Conv1d(512, 512, kernel_size=(3,), stride=(1,), padding=(16,), dilation=(16,), groups=512, bias=False)
              (prelu): PReLU(num_parameters=1)
              (norm): GlobalLayerNorm()
              (pointwise_conv): Conv1d(512, 256, kernel_size=(1,), stride=(1,), bias=False)
            )
          )
        )
        (6): TemporalBlock(
          (net): Sequential(
            (0): Conv1d(256, 512, kernel_size=(1,), stride=(1,), bias=False)
            (1): PReLU(num_parameters=1)
            (2): GlobalLayerNorm()
            (3): DepthwiseSeparableConv(
              (depthwise_conv): Conv1d(512, 512, kernel_size=(3,), stride=(1,), padding=(32,), dilation=(32,), groups=512, bias=False)
              (prelu): PReLU(num_parameters=1)
              (norm): GlobalLayerNorm()
              (pointwise_conv): Conv1d(512, 256, kernel_size=(1,), stride=(1,), bias=False)
            )
          )
        )
        (7): TemporalBlock(
          (net): Sequential(
            (0): Conv1d(256, 512, kernel_size=(1,), stride=(1,), bias=False)
            (1): PReLU(num_parameters=1)
            (2): GlobalLayerNorm()
            (3): DepthwiseSeparableConv(
              (depthwise_conv): Conv1d(512, 512, kernel_size=(3,), stride=(1,), padding=(64,), dilation=(64,), groups=512, bias=False)
              (prelu): PReLU(num_parameters=1)
              (norm): GlobalLayerNorm()
              (pointwise_conv): Conv1d(512, 256, kernel_size=(1,), stride=(1,), bias=False)
            )
          )
        )
        (8): TemporalBlock(
          (net): Sequential(
            (0): Conv1d(256, 512, kernel_size=(1,), stride=(1,), bias=False)
            (1): PReLU(num_parameters=1)
            (2): GlobalLayerNorm()
            (3): DepthwiseSeparableConv(
              (depthwise_conv): Conv1d(512, 512, kernel_size=(3,), stride=(1,), padding=(128,), dilation=(128,), groups=512, bias=False)
              (prelu): PReLU(num_parameters=1)
              (norm): GlobalLayerNorm()
              (pointwise_conv): Conv1d(512, 256, kernel_size=(1,), stride=(1,), bias=False)
            )
          )
        )
      )
      (2): Sequential(
        (0): Conv1d(768, 256, kernel_size=(1,), stride=(1,), bias=False)
        (1): TemporalBlock(
          (net): Sequential(
            (0): Conv1d(256, 512, kernel_size=(1,), stride=(1,), bias=False)
            (1): PReLU(num_parameters=1)
            (2): GlobalLayerNorm()
            (3): DepthwiseSeparableConv(
              (depthwise_conv): Conv1d(512, 512, kernel_size=(3,), stride=(1,), padding=(1,), groups=512, bias=False)
              (prelu): PReLU(num_parameters=1)
              (norm): GlobalLayerNorm()
              (pointwise_conv): Conv1d(512, 256, kernel_size=(1,), stride=(1,), bias=False)
            )
          )
        )
        (2): TemporalBlock(
          (net): Sequential(
            (0): Conv1d(256, 512, kernel_size=(1,), stride=(1,), bias=False)
            (1): PReLU(num_parameters=1)
            (2): GlobalLayerNorm()
            (3): DepthwiseSeparableConv(
              (depthwise_conv): Conv1d(512, 512, kernel_size=(3,), stride=(1,), padding=(2,), dilation=(2,), groups=512, bias=False)
              (prelu): PReLU(num_parameters=1)
              (norm): GlobalLayerNorm()
              (pointwise_conv): Conv1d(512, 256, kernel_size=(1,), stride=(1,), bias=False)
            )
          )
        )
        (3): TemporalBlock(
          (net): Sequential(
            (0): Conv1d(256, 512, kernel_size=(1,), stride=(1,), bias=False)
            (1): PReLU(num_parameters=1)
            (2): GlobalLayerNorm()
            (3): DepthwiseSeparableConv(
              (depthwise_conv): Conv1d(512, 512, kernel_size=(3,), stride=(1,), padding=(4,), dilation=(4,), groups=512, bias=False)
              (prelu): PReLU(num_parameters=1)
              (norm): GlobalLayerNorm()
              (pointwise_conv): Conv1d(512, 256, kernel_size=(1,), stride=(1,), bias=False)
            )
          )
        )
        (4): TemporalBlock(
          (net): Sequential(
            (0): Conv1d(256, 512, kernel_size=(1,), stride=(1,), bias=False)
            (1): PReLU(num_parameters=1)
            (2): GlobalLayerNorm()
            (3): DepthwiseSeparableConv(
              (depthwise_conv): Conv1d(512, 512, kernel_size=(3,), stride=(1,), padding=(8,), dilation=(8,), groups=512, bias=False)
              (prelu): PReLU(num_parameters=1)
              (norm): GlobalLayerNorm()
              (pointwise_conv): Conv1d(512, 256, kernel_size=(1,), stride=(1,), bias=False)
            )
          )
        )
        (5): TemporalBlock(
          (net): Sequential(
            (0): Conv1d(256, 512, kernel_size=(1,), stride=(1,), bias=False)
            (1): PReLU(num_parameters=1)
            (2): GlobalLayerNorm()
            (3): DepthwiseSeparableConv(
              (depthwise_conv): Conv1d(512, 512, kernel_size=(3,), stride=(1,), padding=(16,), dilation=(16,), groups=512, bias=False)
              (prelu): PReLU(num_parameters=1)
              (norm): GlobalLayerNorm()
              (pointwise_conv): Conv1d(512, 256, kernel_size=(1,), stride=(1,), bias=False)
            )
          )
        )
        (6): TemporalBlock(
          (net): Sequential(
            (0): Conv1d(256, 512, kernel_size=(1,), stride=(1,), bias=False)
            (1): PReLU(num_parameters=1)
            (2): GlobalLayerNorm()
            (3): DepthwiseSeparableConv(
              (depthwise_conv): Conv1d(512, 512, kernel_size=(3,), stride=(1,), padding=(32,), dilation=(32,), groups=512, bias=False)
              (prelu): PReLU(num_parameters=1)
              (norm): GlobalLayerNorm()
              (pointwise_conv): Conv1d(512, 256, kernel_size=(1,), stride=(1,), bias=False)
            )
          )
        )
        (7): TemporalBlock(
          (net): Sequential(
            (0): Conv1d(256, 512, kernel_size=(1,), stride=(1,), bias=False)
            (1): PReLU(num_parameters=1)
            (2): GlobalLayerNorm()
            (3): DepthwiseSeparableConv(
              (depthwise_conv): Conv1d(512, 512, kernel_size=(3,), stride=(1,), padding=(64,), dilation=(64,), groups=512, bias=False)
              (prelu): PReLU(num_parameters=1)
              (norm): GlobalLayerNorm()
              (pointwise_conv): Conv1d(512, 256, kernel_size=(1,), stride=(1,), bias=False)
            )
          )
        )
        (8): TemporalBlock(
          (net): Sequential(
            (0): Conv1d(256, 512, kernel_size=(1,), stride=(1,), bias=False)
            (1): PReLU(num_parameters=1)
            (2): GlobalLayerNorm()
            (3): DepthwiseSeparableConv(
              (depthwise_conv): Conv1d(512, 512, kernel_size=(3,), stride=(1,), padding=(128,), dilation=(128,), groups=512, bias=False)
              (prelu): PReLU(num_parameters=1)
              (norm): GlobalLayerNorm()
              (pointwise_conv): Conv1d(512, 256, kernel_size=(1,), stride=(1,), bias=False)
            )
          )
        )
      )
      (3): Sequential(
        (0): Conv1d(768, 256, kernel_size=(1,), stride=(1,), bias=False)
        (1): TemporalBlock(
          (net): Sequential(
            (0): Conv1d(256, 512, kernel_size=(1,), stride=(1,), bias=False)
            (1): PReLU(num_parameters=1)
            (2): GlobalLayerNorm()
            (3): DepthwiseSeparableConv(
              (depthwise_conv): Conv1d(512, 512, kernel_size=(3,), stride=(1,), padding=(1,), groups=512, bias=False)
              (prelu): PReLU(num_parameters=1)
              (norm): GlobalLayerNorm()
              (pointwise_conv): Conv1d(512, 256, kernel_size=(1,), stride=(1,), bias=False)
            )
          )
        )
        (2): TemporalBlock(
          (net): Sequential(
            (0): Conv1d(256, 512, kernel_size=(1,), stride=(1,), bias=False)
            (1): PReLU(num_parameters=1)
            (2): GlobalLayerNorm()
            (3): DepthwiseSeparableConv(
              (depthwise_conv): Conv1d(512, 512, kernel_size=(3,), stride=(1,), padding=(2,), dilation=(2,), groups=512, bias=False)
              (prelu): PReLU(num_parameters=1)
              (norm): GlobalLayerNorm()
              (pointwise_conv): Conv1d(512, 256, kernel_size=(1,), stride=(1,), bias=False)
            )
          )
        )
        (3): TemporalBlock(
          (net): Sequential(
            (0): Conv1d(256, 512, kernel_size=(1,), stride=(1,), bias=False)
            (1): PReLU(num_parameters=1)
            (2): GlobalLayerNorm()
            (3): DepthwiseSeparableConv(
              (depthwise_conv): Conv1d(512, 512, kernel_size=(3,), stride=(1,), padding=(4,), dilation=(4,), groups=512, bias=False)
              (prelu): PReLU(num_parameters=1)
              (norm): GlobalLayerNorm()
              (pointwise_conv): Conv1d(512, 256, kernel_size=(1,), stride=(1,), bias=False)
            )
          )
        )
        (4): TemporalBlock(
          (net): Sequential(
            (0): Conv1d(256, 512, kernel_size=(1,), stride=(1,), bias=False)
            (1): PReLU(num_parameters=1)
            (2): GlobalLayerNorm()
            (3): DepthwiseSeparableConv(
              (depthwise_conv): Conv1d(512, 512, kernel_size=(3,), stride=(1,), padding=(8,), dilation=(8,), groups=512, bias=False)
              (prelu): PReLU(num_parameters=1)
              (norm): GlobalLayerNorm()
              (pointwise_conv): Conv1d(512, 256, kernel_size=(1,), stride=(1,), bias=False)
            )
          )
        )
        (5): TemporalBlock(
          (net): Sequential(
            (0): Conv1d(256, 512, kernel_size=(1,), stride=(1,), bias=False)
            (1): PReLU(num_parameters=1)
            (2): GlobalLayerNorm()
            (3): DepthwiseSeparableConv(
              (depthwise_conv): Conv1d(512, 512, kernel_size=(3,), stride=(1,), padding=(16,), dilation=(16,), groups=512, bias=False)
              (prelu): PReLU(num_parameters=1)
              (norm): GlobalLayerNorm()
              (pointwise_conv): Conv1d(512, 256, kernel_size=(1,), stride=(1,), bias=False)
            )
          )
        )
        (6): TemporalBlock(
          (net): Sequential(
            (0): Conv1d(256, 512, kernel_size=(1,), stride=(1,), bias=False)
            (1): PReLU(num_parameters=1)
            (2): GlobalLayerNorm()
            (3): DepthwiseSeparableConv(
              (depthwise_conv): Conv1d(512, 512, kernel_size=(3,), stride=(1,), padding=(32,), dilation=(32,), groups=512, bias=False)
              (prelu): PReLU(num_parameters=1)
              (norm): GlobalLayerNorm()
              (pointwise_conv): Conv1d(512, 256, kernel_size=(1,), stride=(1,), bias=False)
            )
          )
        )
        (7): TemporalBlock(
          (net): Sequential(
            (0): Conv1d(256, 512, kernel_size=(1,), stride=(1,), bias=False)
            (1): PReLU(num_parameters=1)
            (2): GlobalLayerNorm()
            (3): DepthwiseSeparableConv(
              (depthwise_conv): Conv1d(512, 512, kernel_size=(3,), stride=(1,), padding=(64,), dilation=(64,), groups=512, bias=False)
              (prelu): PReLU(num_parameters=1)
              (norm): GlobalLayerNorm()
              (pointwise_conv): Conv1d(512, 256, kernel_size=(1,), stride=(1,), bias=False)
            )
          )
        )
        (8): TemporalBlock(
          (net): Sequential(
            (0): Conv1d(256, 512, kernel_size=(1,), stride=(1,), bias=False)
            (1): PReLU(num_parameters=1)
            (2): GlobalLayerNorm()
            (3): DepthwiseSeparableConv(
              (depthwise_conv): Conv1d(512, 512, kernel_size=(3,), stride=(1,), padding=(128,), dilation=(128,), groups=512, bias=False)
              (prelu): PReLU(num_parameters=1)
              (norm): GlobalLayerNorm()
              (pointwise_conv): Conv1d(512, 256, kernel_size=(1,), stride=(1,), bias=False)
            )
          )
        )
      )
    )
    (visual_conv): Sequential(
      (0): VisualConv1D(
        (net): Sequential(
          (0): ReLU()
          (1): BatchNorm1d(512, eps=1e-05, momentum=0.1, affine=True, track_running_stats=True)
          (2): Conv1d(512, 512, kernel_size=(3,), stride=(1,), padding=(1,), groups=512, bias=False)
          (3): PReLU(num_parameters=1)
          (4): BatchNorm1d(512, eps=1e-05, momentum=0.1, affine=True, track_running_stats=True)
          (5): Conv1d(512, 512, kernel_size=(1,), stride=(1,), bias=False)
        )
      )
      (1): VisualConv1D(
        (net): Sequential(
          (0): ReLU()
          (1): BatchNorm1d(512, eps=1e-05, momentum=0.1, affine=True, track_running_stats=True)
          (2): Conv1d(512, 512, kernel_size=(3,), stride=(1,), padding=(1,), groups=512, bias=False)
          (3): PReLU(num_parameters=1)
          (4): BatchNorm1d(512, eps=1e-05, momentum=0.1, affine=True, track_running_stats=True)
          (5): Conv1d(512, 512, kernel_size=(1,), stride=(1,), bias=False)
        )
      )
      (2): VisualConv1D(
        (net): Sequential(
          (0): ReLU()
          (1): BatchNorm1d(512, eps=1e-05, momentum=0.1, affine=True, track_running_stats=True)
          (2): Conv1d(512, 512, kernel_size=(3,), stride=(1,), padding=(1,), groups=512, bias=False)
          (3): PReLU(num_parameters=1)
          (4): BatchNorm1d(512, eps=1e-05, momentum=0.1, affine=True, track_running_stats=True)
          (5): Conv1d(512, 512, kernel_size=(1,), stride=(1,), bias=False)
        )
      )
      (3): VisualConv1D(
        (net): Sequential(
          (0): ReLU()
          (1): BatchNorm1d(512, eps=1e-05, momentum=0.1, affine=True, track_running_stats=True)
          (2): Conv1d(512, 512, kernel_size=(3,), stride=(1,), padding=(1,), groups=512, bias=False)
          (3): PReLU(num_parameters=1)
          (4): BatchNorm1d(512, eps=1e-05, momentum=0.1, affine=True, track_running_stats=True)
          (5): Conv1d(512, 512, kernel_size=(1,), stride=(1,), bias=False)
        )
      )
      (4): VisualConv1D(
        (net): Sequential(
          (0): ReLU()
          (1): BatchNorm1d(512, eps=1e-05, momentum=0.1, affine=True, track_running_stats=True)
          (2): Conv1d(512, 512, kernel_size=(3,), stride=(1,), padding=(1,), groups=512, bias=False)
          (3): PReLU(num_parameters=1)
          (4): BatchNorm1d(512, eps=1e-05, momentum=0.1, affine=True, track_running_stats=True)
          (5): Conv1d(512, 512, kernel_size=(1,), stride=(1,), bias=False)
        )
      )
    )
    (ve_conv1x1): ModuleList(
      (0): Conv1d(512, 256, kernel_size=(1,), stride=(1,), bias=False)
      (1): Conv1d(512, 256, kernel_size=(1,), stride=(1,), bias=False)
      (2): Conv1d(512, 256, kernel_size=(1,), stride=(1,), bias=False)
      (3): Conv1d(512, 256, kernel_size=(1,), stride=(1,), bias=False)
    )
    (ve_conv1x1_SE): ModuleList(
      (0): Conv1d(512, 256, kernel_size=(1,), stride=(1,), bias=False)
      (1): Conv1d(512, 256, kernel_size=(1,), stride=(1,), bias=False)
      (2): Conv1d(512, 256, kernel_size=(1,), stride=(1,), bias=False)
      (3): Conv1d(512, 256, kernel_size=(1,), stride=(1,), bias=False)
    )
    (se_net): ModuleList(
      (0): SpeakerEmbedding(
        (conv_proj): Conv1d(512, 256, kernel_size=(1,), stride=(1,), bias=False)
        (resnet): ModuleList(
          (0): Sequential(
            (0): Conv1d(256, 256, kernel_size=(1,), stride=(1,), bias=False)
            (1): BatchNorm1d(256, eps=1e-05, momentum=0.1, affine=True, track_running_stats=True)
            (2): PReLU(num_parameters=1)
            (3): Conv1d(256, 256, kernel_size=(1,), stride=(1,), bias=False)
            (4): BatchNorm1d(256, eps=1e-05, momentum=0.1, affine=True, track_running_stats=True)
          )
          (1): Sequential(
            (0): Conv1d(256, 256, kernel_size=(1,), stride=(1,), bias=False)
            (1): BatchNorm1d(256, eps=1e-05, momentum=0.1, affine=True, track_running_stats=True)
            (2): PReLU(num_parameters=1)
            (3): Conv1d(256, 256, kernel_size=(1,), stride=(1,), bias=False)
            (4): BatchNorm1d(256, eps=1e-05, momentum=0.1, affine=True, track_running_stats=True)
          )
          (2): Sequential(
            (0): Conv1d(256, 256, kernel_size=(1,), stride=(1,), bias=False)
            (1): BatchNorm1d(256, eps=1e-05, momentum=0.1, affine=True, track_running_stats=True)
            (2): PReLU(num_parameters=1)
            (3): Conv1d(256, 256, kernel_size=(1,), stride=(1,), bias=False)
            (4): BatchNorm1d(256, eps=1e-05, momentum=0.1, affine=True, track_running_stats=True)
          )
        )
        (prelu): ModuleList(
          (0): PReLU(num_parameters=1)
          (1): PReLU(num_parameters=1)
          (2): PReLU(num_parameters=1)
        )
        (maxPool): ModuleList(
          (0): AvgPool1d(kernel_size=(3,), stride=(3,), padding=(0,))
          (1): AvgPool1d(kernel_size=(3,), stride=(3,), padding=(0,))
          (2): AvgPool1d(kernel_size=(3,), stride=(3,), padding=(0,))
        )
        (conv): Conv1d(256, 256, kernel_size=(1,), stride=(1,))
        (avgPool): AdaptiveAvgPool1d(output_size=1)
      )
      (1): SpeakerEmbedding(
        (conv_proj): Conv1d(512, 256, kernel_size=(1,), stride=(1,), bias=False)
        (resnet): ModuleList(
          (0): Sequential(
            (0): Conv1d(256, 256, kernel_size=(1,), stride=(1,), bias=False)
            (1): BatchNorm1d(256, eps=1e-05, momentum=0.1, affine=True, track_running_stats=True)
            (2): PReLU(num_parameters=1)
            (3): Conv1d(256, 256, kernel_size=(1,), stride=(1,), bias=False)
            (4): BatchNorm1d(256, eps=1e-05, momentum=0.1, affine=True, track_running_stats=True)
          )
          (1): Sequential(
            (0): Conv1d(256, 256, kernel_size=(1,), stride=(1,), bias=False)
            (1): BatchNorm1d(256, eps=1e-05, momentum=0.1, affine=True, track_running_stats=True)
            (2): PReLU(num_parameters=1)
            (3): Conv1d(256, 256, kernel_size=(1,), stride=(1,), bias=False)
            (4): BatchNorm1d(256, eps=1e-05, momentum=0.1, affine=True, track_running_stats=True)
          )
          (2): Sequential(
            (0): Conv1d(256, 256, kernel_size=(1,), stride=(1,), bias=False)
            (1): BatchNorm1d(256, eps=1e-05, momentum=0.1, affine=True, track_running_stats=True)
            (2): PReLU(num_parameters=1)
            (3): Conv1d(256, 256, kernel_size=(1,), stride=(1,), bias=False)
            (4): BatchNorm1d(256, eps=1e-05, momentum=0.1, affine=True, track_running_stats=True)
          )
        )
        (prelu): ModuleList(
          (0): PReLU(num_parameters=1)
          (1): PReLU(num_parameters=1)
          (2): PReLU(num_parameters=1)
        )
        (maxPool): ModuleList(
          (0): AvgPool1d(kernel_size=(3,), stride=(3,), padding=(0,))
          (1): AvgPool1d(kernel_size=(3,), stride=(3,), padding=(0,))
          (2): AvgPool1d(kernel_size=(3,), stride=(3,), padding=(0,))
        )
        (conv): Conv1d(256, 256, kernel_size=(1,), stride=(1,))
        (avgPool): AdaptiveAvgPool1d(output_size=1)
      )
      (2): SpeakerEmbedding(
        (conv_proj): Conv1d(512, 256, kernel_size=(1,), stride=(1,), bias=False)
        (resnet): ModuleList(
          (0): Sequential(
            (0): Conv1d(256, 256, kernel_size=(1,), stride=(1,), bias=False)
            (1): BatchNorm1d(256, eps=1e-05, momentum=0.1, affine=True, track_running_stats=True)
            (2): PReLU(num_parameters=1)
            (3): Conv1d(256, 256, kernel_size=(1,), stride=(1,), bias=False)
            (4): BatchNorm1d(256, eps=1e-05, momentum=0.1, affine=True, track_running_stats=True)
          )
          (1): Sequential(
            (0): Conv1d(256, 256, kernel_size=(1,), stride=(1,), bias=False)
            (1): BatchNorm1d(256, eps=1e-05, momentum=0.1, affine=True, track_running_stats=True)
            (2): PReLU(num_parameters=1)
            (3): Conv1d(256, 256, kernel_size=(1,), stride=(1,), bias=False)
            (4): BatchNorm1d(256, eps=1e-05, momentum=0.1, affine=True, track_running_stats=True)
          )
          (2): Sequential(
            (0): Conv1d(256, 256, kernel_size=(1,), stride=(1,), bias=False)
            (1): BatchNorm1d(256, eps=1e-05, momentum=0.1, affine=True, track_running_stats=True)
            (2): PReLU(num_parameters=1)
            (3): Conv1d(256, 256, kernel_size=(1,), stride=(1,), bias=False)
            (4): BatchNorm1d(256, eps=1e-05, momentum=0.1, affine=True, track_running_stats=True)
          )
        )
        (prelu): ModuleList(
          (0): PReLU(num_parameters=1)
          (1): PReLU(num_parameters=1)
          (2): PReLU(num_parameters=1)
        )
        (maxPool): ModuleList(
          (0): AvgPool1d(kernel_size=(3,), stride=(3,), padding=(0,))
          (1): AvgPool1d(kernel_size=(3,), stride=(3,), padding=(0,))
          (2): AvgPool1d(kernel_size=(3,), stride=(3,), padding=(0,))
        )
        (conv): Conv1d(256, 256, kernel_size=(1,), stride=(1,))
        (avgPool): AdaptiveAvgPool1d(output_size=1)
      )
      (3): SpeakerEmbedding(
        (conv_proj): Conv1d(512, 256, kernel_size=(1,), stride=(1,), bias=False)
        (resnet): ModuleList(
          (0): Sequential(
            (0): Conv1d(256, 256, kernel_size=(1,), stride=(1,), bias=False)
            (1): BatchNorm1d(256, eps=1e-05, momentum=0.1, affine=True, track_running_stats=True)
            (2): PReLU(num_parameters=1)
            (3): Conv1d(256, 256, kernel_size=(1,), stride=(1,), bias=False)
            (4): BatchNorm1d(256, eps=1e-05, momentum=0.1, affine=True, track_running_stats=True)
          )
          (1): Sequential(
            (0): Conv1d(256, 256, kernel_size=(1,), stride=(1,), bias=False)
            (1): BatchNorm1d(256, eps=1e-05, momentum=0.1, affine=True, track_running_stats=True)
            (2): PReLU(num_parameters=1)
            (3): Conv1d(256, 256, kernel_size=(1,), stride=(1,), bias=False)
            (4): BatchNorm1d(256, eps=1e-05, momentum=0.1, affine=True, track_running_stats=True)
          )
          (2): Sequential(
            (0): Conv1d(256, 256, kernel_size=(1,), stride=(1,), bias=False)
            (1): BatchNorm1d(256, eps=1e-05, momentum=0.1, affine=True, track_running_stats=True)
            (2): PReLU(num_parameters=1)
            (3): Conv1d(256, 256, kernel_size=(1,), stride=(1,), bias=False)
            (4): BatchNorm1d(256, eps=1e-05, momentum=0.1, affine=True, track_running_stats=True)
          )
        )
        (prelu): ModuleList(
          (0): PReLU(num_parameters=1)
          (1): PReLU(num_parameters=1)
          (2): PReLU(num_parameters=1)
        )
        (maxPool): ModuleList(
          (0): AvgPool1d(kernel_size=(3,), stride=(3,), padding=(0,))
          (1): AvgPool1d(kernel_size=(3,), stride=(3,), padding=(0,))
          (2): AvgPool1d(kernel_size=(3,), stride=(3,), padding=(0,))
        )
        (conv): Conv1d(256, 256, kernel_size=(1,), stride=(1,))
        (avgPool): AdaptiveAvgPool1d(output_size=1)
      )
    )
    (audio_linear): ModuleList(
      (0): Linear(in_features=256, out_features=800, bias=True)
      (1): Linear(in_features=256, out_features=800, bias=True)
      (2): Linear(in_features=256, out_features=800, bias=True)
      (3): Linear(in_features=256, out_features=800, bias=True)
    )
    (mask_conv1x1): Conv1d(256, 256, kernel_size=(1,), stride=(1,), bias=False)
    (att): ModuleList(
      (0): AdditiveAttention(
        (query_proj_a): Linear(in_features=256, out_features=256, bias=False)
        (key_proj_a): Linear(in_features=256, out_features=256, bias=False)
        (score_proj_a): Linear(in_features=256, out_features=1, bias=True)
        (query_proj_v): Linear(in_features=256, out_features=256, bias=False)
        (key_proj_v): Linear(in_features=256, out_features=256, bias=False)
        (score_proj_v): Linear(in_features=256, out_features=1, bias=True)
      )
      (1): AdditiveAttention(
        (query_proj_a): Linear(in_features=256, out_features=256, bias=False)
        (key_proj_a): Linear(in_features=256, out_features=256, bias=False)
        (score_proj_a): Linear(in_features=256, out_features=1, bias=True)
        (query_proj_v): Linear(in_features=256, out_features=256, bias=False)
        (key_proj_v): Linear(in_features=256, out_features=256, bias=False)
        (score_proj_v): Linear(in_features=256, out_features=1, bias=True)
      )
      (2): AdditiveAttention(
        (query_proj_a): Linear(in_features=256, out_features=256, bias=False)
        (key_proj_a): Linear(in_features=256, out_features=256, bias=False)
        (score_proj_a): Linear(in_features=256, out_features=1, bias=True)
        (query_proj_v): Linear(in_features=256, out_features=256, bias=False)
        (key_proj_v): Linear(in_features=256, out_features=256, bias=False)
        (score_proj_v): Linear(in_features=256, out_features=1, bias=True)
      )
      (3): AdditiveAttention(
        (query_proj_a): Linear(in_features=256, out_features=256, bias=False)
        (key_proj_a): Linear(in_features=256, out_features=256, bias=False)
        (score_proj_a): Linear(in_features=256, out_features=1, bias=True)
        (query_proj_v): Linear(in_features=256, out_features=256, bias=False)
        (key_proj_v): Linear(in_features=256, out_features=256, bias=False)
        (score_proj_v): Linear(in_features=256, out_features=1, bias=True)
      )
    )
  )
  (decoder): Decoder(
    (basis_signals): Linear(in_features=256, out_features=40, bias=False)
  )
  (visual_frontend): VisualFrontend(
    (frontend3D): Sequential(
      (0): Conv3d(1, 64, kernel_size=(5, 7, 7), stride=(1, 2, 2), padding=(2, 3, 3), bias=False)
      (1): BatchNorm3d(64, eps=0.001, momentum=0.01, affine=True, track_running_stats=True)
      (2): ReLU()
      (3): MaxPool3d(kernel_size=(1, 3, 3), stride=(1, 2, 2), padding=(0, 1, 1), dilation=1, ceil_mode=False)
    )
    (resnet): ResNet(
      (layer1): ResNetLayer(
        (conv1a): Conv2d(64, 64, kernel_size=(3, 3), stride=(1, 1), padding=(1, 1), bias=False)
        (bn1a): BatchNorm2d(64, eps=0.001, momentum=0.01, affine=True, track_running_stats=True)
        (conv2a): Conv2d(64, 64, kernel_size=(3, 3), stride=(1, 1), padding=(1, 1), bias=False)
        (downsample): Conv2d(64, 64, kernel_size=(1, 1), stride=(1, 1), bias=False)
        (outbna): BatchNorm2d(64, eps=0.001, momentum=0.01, affine=True, track_running_stats=True)
        (conv1b): Conv2d(64, 64, kernel_size=(3, 3), stride=(1, 1), padding=(1, 1), bias=False)
        (bn1b): BatchNorm2d(64, eps=0.001, momentum=0.01, affine=True, track_running_stats=True)
        (conv2b): Conv2d(64, 64, kernel_size=(3, 3), stride=(1, 1), padding=(1, 1), bias=False)
        (outbnb): BatchNorm2d(64, eps=0.001, momentum=0.01, affine=True, track_running_stats=True)
      )
      (layer2): ResNetLayer(
        (conv1a): Conv2d(64, 128, kernel_size=(3, 3), stride=(2, 2), padding=(1, 1), bias=False)
        (bn1a): BatchNorm2d(128, eps=0.001, momentum=0.01, affine=True, track_running_stats=True)
        (conv2a): Conv2d(128, 128, kernel_size=(3, 3), stride=(1, 1), padding=(1, 1), bias=False)
        (downsample): Conv2d(64, 128, kernel_size=(1, 1), stride=(2, 2), bias=False)
        (outbna): BatchNorm2d(128, eps=0.001, momentum=0.01, affine=True, track_running_stats=True)
        (conv1b): Conv2d(128, 128, kernel_size=(3, 3), stride=(1, 1), padding=(1, 1), bias=False)
        (bn1b): BatchNorm2d(128, eps=0.001, momentum=0.01, affine=True, track_running_stats=True)
        (conv2b): Conv2d(128, 128, kernel_size=(3, 3), stride=(1, 1), padding=(1, 1), bias=False)
        (outbnb): BatchNorm2d(128, eps=0.001, momentum=0.01, affine=True, track_running_stats=True)
      )
      (layer3): ResNetLayer(
        (conv1a): Conv2d(128, 256, kernel_size=(3, 3), stride=(2, 2), padding=(1, 1), bias=False)
        (bn1a): BatchNorm2d(256, eps=0.001, momentum=0.01, affine=True, track_running_stats=True)
        (conv2a): Conv2d(256, 256, kernel_size=(3, 3), stride=(1, 1), padding=(1, 1), bias=False)
        (downsample): Conv2d(128, 256, kernel_size=(1, 1), stride=(2, 2), bias=False)
        (outbna): BatchNorm2d(256, eps=0.001, momentum=0.01, affine=True, track_running_stats=True)
        (conv1b): Conv2d(256, 256, kernel_size=(3, 3), stride=(1, 1), padding=(1, 1), bias=False)
        (bn1b): BatchNorm2d(256, eps=0.001, momentum=0.01, affine=True, track_running_stats=True)
        (conv2b): Conv2d(256, 256, kernel_size=(3, 3), stride=(1, 1), padding=(1, 1), bias=False)
        (outbnb): BatchNorm2d(256, eps=0.001, momentum=0.01, affine=True, track_running_stats=True)
      )
      (layer4): ResNetLayer(
        (conv1a): Conv2d(256, 512, kernel_size=(3, 3), stride=(2, 2), padding=(1, 1), bias=False)
        (bn1a): BatchNorm2d(512, eps=0.001, momentum=0.01, affine=True, track_running_stats=True)
        (conv2a): Conv2d(512, 512, kernel_size=(3, 3), stride=(1, 1), padding=(1, 1), bias=False)
        (downsample): Conv2d(256, 512, kernel_size=(1, 1), stride=(2, 2), bias=False)
        (outbna): BatchNorm2d(512, eps=0.001, momentum=0.01, affine=True, track_running_stats=True)
        (conv1b): Conv2d(512, 512, kernel_size=(3, 3), stride=(1, 1), padding=(1, 1), bias=False)
        (bn1b): BatchNorm2d(512, eps=0.001, momentum=0.01, affine=True, track_running_stats=True)
        (conv2b): Conv2d(512, 512, kernel_size=(3, 3), stride=(1, 1), padding=(1, 1), bias=False)
        (outbnb): BatchNorm2d(512, eps=0.001, momentum=0.01, affine=True, track_running_stats=True)
      )
      (avgpool): AvgPool2d(kernel_size=(4, 4), stride=(1, 1), padding=0)
    )
  )
)
Selected optimization level O0:  Pure FP32 training.

Defaults for this optimization level are:
enabled                : True
opt_level              : O0
cast_model_type        : torch.float32
patch_torch_functions  : False
keep_batchnorm_fp32    : None
…
